…
    "    X = TimeDistributed(Dense(output_size, activation = \"sigmoid\"))(X) # time distributed  (sigmoid)\n",
    "\n",
    "    ### END CODE HERE ###\n",
    "\n",
    "    model = Model(inputs = X_input, outputs = X)\n",
    "    \n",
    "    return model"
   ]
  },
  {
   "cell_type": "code",
   "execution_count": 27,
   "metadata": {},
   "outputs": [
    {
     "name": "stdout",
     "output_type": "stream",
     "text": [
      "_________________________________________________________________\n",
      "Layer (type)                 Output Shape              Param #   \n",
      "=================================================================\n",
      "input_9 (InputLayer)         (None, 645, 39)           0         \n",
      "_________________________________________________________________\n",
      "conv1d_9 (Conv1D)            (None, 158, 196)          114856    \n",
      "_________________________________________________________________\n",
      "batch_normalization_13 (Batc (None, 158, 196)          784       \n",
      "_________________________________________________________________\n",
      "activation_11 (Activation)   (None, 158, 196)          0         \n",
      "_________________________________________________________________\n",
      "dropout_33 (Dropout)         (None, 158, 196)          0         \n",
      "_________________________________________________________________\n",
      "lstm_19 (LSTM)               (None, 158, 128)          166400    \n",
      "_________________________________________________________________\n",
      "dropout_34 (Dropout)         (None, 158, 128)          0         \n",
      "_________________________________________________________________\n",
      "batch_normalization_14 (Batc (None, 158, 128)          512       \n",
      "_________________________________________________________________\n",
      "lstm_20 (LSTM)               (None, 158, 128)          131584    \n",
      "_________________________________________________________________\n",
      "dropout_35 (Dropout)         (None, 158, 128)          0         \n",
      "_________________________________________________________________\n",
      "batch_normalization_15 (Batc (None, 158, 128)          512       \n",
      "_________________________________________________________________\n",
      "dropout_36 (Dropout)         (None, 158, 128)          0         \n",
      "_________________________________________________________________\n",
      "time_distributed_7 (TimeDist (None, 158, 10)           1290      \n",
      "=================================================================\n",
      "Total params: 415,938\n",
      "Trainable params: 415,034\n",
      "Non-trainable params: 904\n",
      "_________________________________________________________________\n"
     ]
    }
   ],
   "source": [
    "model = model(input_shape = (645, 39),output_size=10)\n",
    "model.summary()\n",
    "model.compile(loss='categorical_crossentropy', optimizer='adam', metrics=['accuracy'])"
…
